…
   "execution_count": 10,
   "metadata": {
    "collapsed": true
   },
   "outputs": [],
   "source": [
    "def adam_optimizer():\n",
    "    return Adam(lr=0.0002, beta_1=0.5)"
   ]
  },
  {
   "cell_type": "code",
   "execution_count": 11,
   "metadata": {},
   "outputs": [
    {
     "name": "stdout",
     "output_type": "stream",
     "text": [
      "_________________________________________________________________\n",
      "Layer (type)                 Output Shape              Param #   \n",
      "=================================================================\n",
      "input_1 (InputLayer)         (None, 256, 256, 3)       0         \n",
      "_________________________________________________________________\n",
      "conv0 (Conv2D)               (None, 127, 127, 32)      896       \n",
      "_________________________________________________________________\n",
      "bn0 (BatchNormalization)     (None, 127, 127, 32)      128       \n",
      "_________________________________________________________________\n",
      "leaky_re_lu_1 (LeakyReLU)    (None, 127, 127, 32)      0         \n",
      "_________________________________________________________________\n",
      "mp0 (MaxPooling2D)           (None, 64, 64, 32)        0         \n",
      "_________________________________________________________________\n",
      "conv1 (Conv2D)               (None, 31, 31, 64)        18496     \n",
      "_________________________________________________________________\n",
      "bn1 (BatchNormalization)     (None, 31, 31, 64)        256       \n",
      "_________________________________________________________________\n",
      "leaky_re_lu_2 (LeakyReLU)    (None, 31, 31, 64)        0         \n",
      "_________________________________________________________________\n",
      "mp1 (MaxPooling2D)           (None, 16, 16, 64)        0         \n",
      "_________________________________________________________________\n",
      "conv2 (Conv2D)               (None, 16, 16, 128)       8320      \n",
      "_________________________________________________________________\n",
      "bn2 (BatchNormalization)     (None, 16, 16, 128)       512       \n",
      "_________________________________________________________________\n",
      "leaky_re_lu_3 (LeakyReLU)    (None, 16, 16, 128)       0         \n",
      "_________________________________________________________________\n",
      "mp2 (MaxPooling2D)           (None, 8, 8, 128)         0         \n",
      "_________________________________________________________________\n",
      "flatten_1 (Flatten)          (None, 8192)              0         \n",
      "_________________________________________________________________\n",
      "fc1 (Dense)                  (None, 1048)              8586264   \n",
      "_________________________________________________________________\n",
      "fc2 (Dense)                  (None, 1048)              1099352   \n",
      "_________________________________________________________________\n",
      "output (Dense)               (None, 1)                 1049      \n",
      "=================================================================\n",
      "Total params: 9,715,273\n",
      "Trainable params: 9,714,825\n",
      "Non-trainable params: 448\n",
      "_________________________________________________________________\n"
     ]
    }
   ],
   "source": [
    "def Discriminator_NN(input_shape):\n",
    "    X_input = Input(input_shape)\n",
    "\n",
…
    "    discriminator.compile(loss='binary_crossentropy', optimizer=adam_optimizer())\n",
    "    return discriminator\n",
    "\"\"\"\n",
    "D = Discriminator_NN((256, 256, 3))\n",
    "D.summary()"
   ]
  },
  {
   "cell_type": "code",
   "execution_count": 12,
   "metadata": {},
   "outputs": [
    {
     "name": "stdout",
     "output_type": "stream",
     "text": [
      "_________________________________________________________________\n",
      "Layer (type)                 Output Shape              Param #   \n",
      "=================================================================\n",
      "input_2 (InputLayer)         (None, 256, 256, 3)       0         \n",
      "_________________________________________________________________\n",
      "zero_padding2d_1 (ZeroPaddin (None, 262, 262, 3)       0         \n",
      "_________________________________________________________________\n",
      "conv0 (Conv2D)               (None, 130, 130, 64)      1792      \n",
      "_________________________________________________________________\n",
      "bn0 (BatchNormalization)     (None, 130, 130, 64)      256       \n",
      "_________________________________________________________________\n",
      "leaky_re_lu_4 (LeakyReLU)    (None, 130, 130, 64)      0         \n",
      "_________________________________________________________________\n",
      "mp0 (MaxPooling2D)           (None, 65, 65, 64)        0         \n",
      "_________________________________________________________________\n",
      "conv1 (Conv2D)               (None, 32, 32, 128)       73856     \n",
      "_________________________________________________________________\n",
      "bn1 (BatchNormalization)     (None, 32, 32, 128)       512       \n",
      "_________________________________________________________________\n",
      "leaky_re_lu_5 (LeakyReLU)    (None, 32, 32, 128)       0         \n",
      "_________________________________________________________________\n",
      "conv2 (Conv2D)               (None, 32, 32, 256)       33024     \n",
      "_________________________________________________________________\n",
      "bn2 (BatchNormalization)     (None, 32, 32, 256)       1024      \n",
      "_________________________________________________________________\n",
      "leaky_re_lu_6 (LeakyReLU)    (None, 32, 32, 256)       0         \n",
      "_________________________________________________________________\n",
      "conv2d_transpose_1 (Conv2DTr (None, 32, 32, 128)       295040    \n",
      "_________________________________________________________________\n",
      "batch_normalization_1 (Batch (None, 32, 32, 128)       512       \n",
      "_________________________________________________________________\n",
      "leaky_re_lu_7 (LeakyReLU)    (None, 32, 32, 128)       0         \n",
      "_________________________________________________________________\n",
      "up_sampling2d_1 (UpSampling2 (None, 64, 64, 128)       0         \n",
      "_________________________________________________________________\n",
      "conv2d_transpose_2 (Conv2DTr (None, 64, 64, 64)        73792     \n",
      "_________________________________________________________________\n",
      "batch_normalization_2 (Batch (None, 64, 64, 64)        256       \n",
      "_________________________________________________________________\n",
      "leaky_re_lu_8 (LeakyReLU)    (None, 64, 64, 64)        0         \n",
      "_________________________________________________________________\n",
      "up_sampling2d_2 (UpSampling2 (None, 128, 128, 64)      0         \n",
      "_________________________________________________________________\n",
      "conv2d_transpose_3 (Conv2DTr (None, 128, 128, 32)      18464     \n",
      "_________________________________________________________________\n",
      "batch_normalization_3 (Batch (None, 128, 128, 32)      128       \n",
      "_________________________________________________________________\n",
      "leaky_re_lu_9 (LeakyReLU)    (None, 128, 128, 32)      0         \n",
      "_________________________________________________________________\n",
      "up_sampling2d_3 (UpSampling2 (None, 256, 256, 32)      0         \n",
      "_________________________________________________________________\n",
      "conv2d_transpose_4 (Conv2DTr (None, 256, 256, 3)       867       \n",
      "=================================================================\n",
      "Total params: 499,523\n",
      "Trainable params: 498,179\n",
      "Non-trainable params: 1,344\n",
      "_________________________________________________________________\n"
     ]
    }
   ],
   "source": [
    "def Generator_NN(input_shape):\n",
    "    X_input = Input(input_shape)\n",
    "\n",
    "    # Convolution\n",
…
